weight parameter/internal validation (non-expertML)/loading.param(W1)_non-expert).npy (npy, 908 bytes, 1 tensors)

array f4 [13, 15]
000000 12 a3 08 40 3e 8a 92 bf 59 e8 fb 3f 3a db 46 c0
       2.134953 -1.1448438 1.9680282 -3.1071305
000010 dc 33 76 3f c6 ba 23 3f 43 13 9c 3f 9a 8f fc bf
       0.9617288 0.6395687 1.2193378 -1.9731324
000020 11 50 9b c0 3a 68 25 c0 83 92 a1 40 8a 5f e1 bf
       -4.8535237 -2.5844865 5.0491347 -1.7607281
000030 3a 97 99 c0 cd 96 ee be 6b 5a 0b 40 ce 75 e0 bd
       -4.7997103 -0.46599427 2.1773937 -0.109599695
000040 dc 0b 97 40 30 63 5f 40 25 34 f6 3f 23 be 68 3f
       4.7201977 3.490429 1.9234663 0.90915126
000050 23 54 ae bf 9e 56 02 40 78 b1 94 bf 83 f3 13 c0
       -1.3619426 2.0365367 -1.1616659 -2.3117378
000060 47 1a 72 c0 5c 73 85 40 75 78 f4 3f 54 c8 a5 40
       -3.7828538 4.170332 1.909926 5.180704
000070 06 27 3b 40 51 00 9d c0 a5 47 9a 40 c2 48 f5 bf
       2.9242568 -4.9062886 4.8212457 -1.9162829
000080 ac 2d 6c bf 93 ef 33 bf a9 97 b5 bf f7 f0 67 40
       -0.9225719 -0.70287436 -1.4186908 3.6240823
000090 93 20 1d be fd 61 ad bf de c9 15 3f 3a 90 0e c0
       -0.15344457 -1.3545529 0.5851115 -2.227553
0000a0 82 87 4e c0 54 48 01 40 23 0c 67 3e 32 97 0c bf
       -3.2270207 2.0200396 0.22563224 -0.54918206
0000b0 f3 2d 88 40 d9 5f 94 be ae 8f 23 c0 85 c0 59 c0
       4.255609 -0.28979376 -2.5556445 -3.4023755
0000c0 65 5f 8a c0 4b 2e 15 c0 5b 14 eb 3f de da bc bf
       -4.324145 -2.3309505 1.8365587 -1.4754293
0000d0 4f 15 19 bf 22 99 f9 bf 30 38 7c 40 e2 70 10 40
       -0.5979814 -1.9499857 3.9409294 2.2568898
0000e0 84 21 89 c0 49 0b 92 40 27 73 20 c0 b8 e6 3b c0
       -4.2853413 4.5638776 -2.5070283 -2.935957
0000f0 bc b5 95 40 1f 61 0e 40 f0 4f 6c bd e7 4f 8e bf
       4.6784344 2.2246778 -0.05769342 -1.1118134
000100 de e0 46 c0 5e 20 66 40 68 30 fe 3d 83 7e 9b be
       -3.1074748 3.5957255 0.124115765 -0.30369958
000110 e9 08 d4 3f fd da 69 3f b9 a0 39 c0 83 ae 03 bf
       1.6565219 0.91349775 -2.9004347 -0.5143816
000120 bc 8b f6 3f a8 aa 81 40 00 61 a9 40 b4 43 63 c0
       1.9261394 4.052082 5.293091 -3.5510073
000130 88 85 80 40 e4 46 99 3f 0d 01 23 c0 d5 c3 be bf
       4.0163 1.1974759 -2.5469391 -1.4903513
000140 02 b9 51 c0 d5 de 81 3f f8 39 f8 bf 28 25 96 40
       -3.276917 1.0146128 -1.9392691 4.6920357
000150 81 8c 2b 40 24 1e 7b 40 82 b3 d9 3f f8 f1 d3 bf
       2.6804507 3.9237146 1.7007906 -1.6558218
000160 96 13 a7 40 ca 9b 1c c0 8c 63 27 40 ac 46 3f c0
       5.221141 -2.4470086 2.6154509 -2.9886885
000170 34 b3 f5 3f 17 30 65 c0 26 7c ef 3f f4 cb 6b 40
       1.9195313 -3.5810602 1.8709762 3.6843233
000180 68 ea 60 be 60 39 80 40 66 e9 11 c0 c7 f3 09 40
       -0.21964419 4.007004 -2.2798705 2.155504
000190 c5 4f 85 bf f9 42 a2 40 00 60 b2 3e 53 cd 8c c0
       -1.0414969 5.0706754 0.34838867 -4.400064
0001a0 bc da 03 c0 67 c5 45 40 c3 e6 99 40 16 3a 4e 40
       -2.0602255 3.0901735 4.809419 3.2222953
0001b0 6f 21 4b 3f 4b 53 66 c0 dd 6f 8e c0 fc 41 e5 3e
       0.7934789 -3.5988338 -4.451155 0.44776905
0001c0 fa 00 67 c0 a6 6c 65 3d ea f5 80 40 3c 62 6a bf
       -3.6094346 0.05601182 4.030019 -0.91556144
0001d0 2b 61 bb c0 37 64 e0 3f 71 f1 45 c0 f7 e9 2c c0
       -5.8556113 1.7530583 -3.0928614 -2.70178
0001e0 a4 fb 8d 40 13 ee 8a c0 60 ff 88 c0 9c b4 5c 40
       4.436968 -4.341562 -4.2811737 3.4485235
0001f0 bc d8 91 c0 a0 24 6d 40 a4 6d 84 c0 85 3c f8 3f
       -4.557707 3.7053604 -4.138384 1.9393469
000200 bf 1d 53 3f 35 7c bb bf 5a e7 b7 3f 56 08 85 40
       0.82467264 -1.464728 1.4367478 4.1572676
000210 fd d1 af 3f de 69 81 c0 e0 26 a5 3d d5 99 67 bf
       1.3735958 -4.0441732 0.080640554 -0.90469104
000220 e7 8e 11 c0 b9 4e 79 40 9b 8e 25 40 73 88 32 40
       -2.274347 3.8954298 2.586829 2.7895782
000230 e2 62 17 3f eb 70 68 40 5c a6 7f 40 14 dd 88 bf
       0.5913526 3.631892 3.9945288 -1.0692468
000240 14 0d 84 c0 70 05 19 40 db 6b 63 c0 03 07 75 40
       -4.1265965 2.3909569 -3.553458 3.828553
000250 98 9f d8 3f 18 bd 1d c0 60 5e 67 bd a2 ac ac be
       1.6923704 -2.4646664 -0.056486487 -0.33725458
000260 b5 e5 00 3f 7a 6d 61 40 e2 ed 9b 40 79 5d 89 3f
       0.50350505 3.522307 4.8727884 1.073165
000270 31 b3 94 40 84 c6 29 3f da ea 88 40 eb 49 1a 40
       4.646874 0.66318536 4.2786684 2.4107616
000280 b5 32 07 40 ad 44 0c 40 eb a8 21 40 db 28 00 40
       2.11247 2.1916916 2.525935 2.0024936
000290 1a d0 85 40 58 db 6f 40 34 21 e6 3f 8a ae 06 c0
       4.181653 3.7477627 1.7978883 -2.104403
0002a0 f0 d4 5e 40 46 77 16 c0 ee fa 3d c0 4b f5 2a c0
       3.4817467 -2.3510299 -2.9684405 -2.6712215
0002b0 c0 d4 90 40 95 d4 68 40 eb 64 1e 40 6c 78 9d 3f
       4.5259705 3.637975 2.4749095 1.2302375
0002c0 e8 eb dc bf cf 47 6a c0 20 85 6d 40 d8 18 34 3f
       -1.7259493 -3.6606328 3.7112503 0.7035041
0002d0 df 51 82 c0 15 58 b3 bf e9 73 fc bf f8 0e 0b c0
       -4.072494 -1.4011256 -1.9722873 -2.1727886
0002e0 54 ed ea 3e 20 e0 23 c0 b5 49 4a c0 23 2a 89 c0
       0.45884192 -2.5605545 -3.1607487 -4.2863936
0002f0 ff 4f 3c c0 e4 9a ec bf f1 3a 45 c0 a7 11 6c c0
       -2.9423826 -1.8484769 -3.0817225 -3.6885774
000300 11 02 22 3b 15 60 e3 3f ac 23 21 c0
       0.002472047 1.7763697 -2.5178022
