weight parameter/internal validation (non-expertML)/loading.param(W2)_non-expert).npy (npy, 968 bytes, 1 tensors)

array f4 [15, 14]
000000 7b e5 54 c0 24 a7 0d c0 bb fa 11 c0 72 e9 ea bf
       -3.3265064 -2.2133265 -2.2809284 -1.8352492
000010 6c 51 87 c0 e1 40 bc bd b0 2c 23 c0 d6 de 90 be
       -4.228689 -0.09192062 -2.5496025 -0.2829501
000020 ab e3 15 40 f6 2e ad 3f c0 e2 07 40 82 f3 2e c0
       2.3420208 1.3529956 2.1232147 -2.7336125
000030 00 6f 96 3e 07 61 e2 3f 08 7b 7a bf 0f 02 36 40
       0.2938156 1.768586 -0.9784398 2.8438756
000040 cd 7e e2 bf 57 36 92 bf c5 1c fe bf f9 42 02 c0
       -1.7694947 -1.1422833 -1.985253 -2.0353377
000050 ea 8d 3e bf d3 10 33 c0 53 fa c9 3f c0 c0 89 bf
       -0.74435294 -2.7979019 1.5779518 -1.0761948
000060 3e 27 0a c0 d8 5e 80 3f ef 8e ee be 6b 06 27 40
       -2.1586452 1.0028944 -0.46593425 2.6097667
000070 7f 24 12 40 b2 3f e7 bf 30 53 bf bf 36 56 02 c0
       2.2834775 -1.8066313 -1.4947262 -2.036512
000080 e8 71 32 40 58 94 ce 3e 36 08 3c 40 8b 76 fe bf
       2.7882023 0.40347552 2.9380012 -1.9879926
000090 7a d3 ad 3f 81 74 b4 bf ec b7 b1 bf 15 b2 f6 be
       1.3580163 -1.4098054 -1.3884254 -0.4818274
0000a0 9b db 41 bf dd 67 39 bf ca 01 4f 40 13 aa 25 c0
       -0.75725716 -0.7242411 3.2344842 -2.5885055
0000b0 38 ae 1a c0 7e 5d 15 40 05 e5 41 3f 16 63 c6 3f
       -2.4168835 2.3338313 0.7574008 1.5498989
0000c0 c6 3c 68 c0 e5 dc c0 3f 2b f6 55 3f f8 2d ed 3f
       -3.6287093 1.5067412 0.8357875 1.8529654
0000d0 37 7e 20 c0 51 a0 0b c0 76 ff 08 c0 17 aa f2 3e
       -2.5077035 -2.18166 -2.140592 0.47395393
0000e0 82 50 ec bf 6f 66 3c bf 46 ef fa 3f 29 f4 0d 40
       -1.8462069 -0.735938 1.960427 2.2180274
0000f0 48 d7 d6 3f f7 6b 70 3f 65 b2 5a 40 32 a8 27 c0
       1.6784449 0.9391474 3.4171383 -2.6196408
000100 4f e1 69 3f be 22 ab 3f 1d 0d d2 bf 2c 66 03 c0
       0.9135942 1.3369977 -1.6410252 -2.053111
000110 b2 bc 14 40 84 9e 65 c0 a0 3e 73 c0 e5 4d f9 bf
       2.324017 -3.5878 -3.8006973 -1.9476897
000120 cc 4f 00 c0 48 bc 15 c0 ad 09 4c c0 f1 9e 9b 3f
       -2.0048704 -2.3396168 -3.1880906 1.215788
000130 0b b7 d6 3e 97 d3 e1 3f 8e b2 bb 3e de ef c4 3f
       0.41936526 1.7642697 0.36659664 1.5385702
000140 bb eb e9 3f a3 2f e0 bf 76 08 0d c0 85 71 3e 40
       1.8275064 -1.7514538 -2.2036414 2.9756787
000150 1f 87 1e 40 c2 be 04 c0 5f a6 04 c0 43 58 05 c0
       2.4769971 -2.074143 -2.0726545 -2.083512
000160 84 fd 42 40 4f 58 f1 3f f4 38 49 be 92 9f f2 bf
       3.0467234 1.8855075 -0.19650632 -1.8954947
000170 ca a8 c6 3f 98 11 00 c0 f2 6f b7 bf c2 15 71 bf
       1.552026 -2.0010738 -1.4331038 -0.94173825
000180 35 22 50 bf 36 e6 6e bc 86 86 de 3f 3a 57 11 c0
       -0.81302196 -0.014581254 1.7384803 -2.270949
000190 bd 0a c9 3f f7 a9 e9 3f 04 63 2b 40 52 3e 50 bf
       1.5706402 1.8254994 2.6779184 -0.81345093
0001a0 30 29 70 c0 28 22 10 bf d7 ac c3 3f 68 03 92 3f
       -3.752514 -0.5630212 1.5287122 1.140729
0001b0 7d bf a6 3f be d0 3a c0 cb 48 f0 bf 9d 46 63 c0
       1.3027188 -2.9189906 -1.8772215 -3.551185
0001c0 43 a0 43 40 32 51 29 40 b0 e2 ab 3f 4f de 1f c0
       3.0566566 2.6455808 1.3428555 -2.4979436
0001d0 c5 2b 24 c0 1c 39 55 40 7c fd f1 bf 93 b4 3a 40
       -2.5651715 3.3316107 -1.8905482 2.9172714
0001e0 10 c5 77 bf 6d 4a e5 bf 95 74 3c c0 b2 9c 75 3e
       -0.9678507 -1.7913338 -2.9446156 0.23985556
0001f0 f0 c3 e9 bf b2 58 21 c0 13 2c 0c 40 f0 18 11 40
       -1.826292 -2.5210385 2.19019 2.267147
000200 03 85 bc 3f 1f d2 4a c0 be ee 35 c0 6e 87 3b c0
       1.4728092 -3.1690748 -2.8426967 -2.930141
000210 c9 c5 88 40 e6 29 ff 3e 76 34 51 3e 66 0d 2c c0
       4.2741437 0.49836653 0.20430169 -2.6883178
000220 3b 8d a3 3f 36 91 54 3f c3 61 d4 bf 20 37 21 c0
       1.2777475 0.83034074 -1.6592335 -2.5189896
000230 1a 6a 5a c0 72 5f 31 c0 da a7 99 3f 49 9d cf 3f
       -3.412726 -2.7714505 1.2004349 1.6219875
000240 c5 4d f1 3f dc 40 85 c0 18 de 65 c0 d8 3e 04 3c
       1.8851858 -4.1641674 -3.5916805 0.008071624
000250 e8 a9 d5 3f 5e ad 32 c0 70 3b 20 c0 7d 14 02 40
       1.6692476 -2.7918315 -2.5036278 2.0325005
000260 91 4e 19 40 d2 d1 f1 3f 72 b4 32 c0 be c2 2a c0
       2.3954203 1.8892157 -2.7922635 -2.6681361
000270 ae ff be 3d c2 75 c9 3f 35 2a 50 c0 f2 95 0b 40
       0.09326111 1.5739062 -3.252576 2.181027
000280 a3 64 57 40 7c fd 2d 40 06 af 5a bf 6e 11 e5 bf
       3.3655174 2.7185965 -0.85423315 -1.7895944
000290 7d 47 3e bd c0 5c dd 3f 6c f4 fd bf 52 76 29 c0
       -0.046454895 1.729393 -1.9840217 -2.6478467
0002a0 57 2e 2c c0 d7 86 aa bf 8c a5 c3 bf e0 84 c0 bf
       -2.6903284 -1.33224 -1.5284896 -1.504055
0002b0 04 bc 38 c0 a9 74 25 c0 9e 59 49 c0 95 40 87 40
       -2.8864756 -2.5852454 -3.1460948 4.2266335
0002c0 13 f3 74 bf 34 a7 df bf 2d 95 17 40 2c 3e b5 3f
       -0.956834 -1.7472901 2.36848 1.4159598
0002d0 57 07 25 40 1d 7c 00 40 e2 bc 15 c0 e9 a9 94 3f
       2.578573 2.0075753 -2.3396535 1.1614352
0002e0 8c 2f cd bf c3 ec 86 bf 84 f0 94 bf 34 04 94 be
       -1.6030135 -1.0541004 -1.16359 -0.28909457
0002f0 9f 73 0e 3e 66 69 42 c0 93 37 14 40 79 9b 83 bf
       0.13911293 -3.037683 2.315892 -1.0281821
000300 a3 46 dc bf 15 c6 ff 3f 6c 70 5f bf a6 d7 e6 bf
       -1.7209057 1.9982325 -0.8728092 -1.8034561
000310 1f ca 3d 40 7c 35 fd be 85 b3 e6 bf ca 37 de bf
       2.9654615 -0.49454868 -1.8023535 -1.7360775
000320 85 b7 20 c0 52 de 68 3f 83 f7 6c 40 2e 10 67 40
       -2.5112011 0.90964234 3.702607 3.6103625
000330 61 f5 ee bf cb 21 e5 3f cd b9 09 c0 29 e5 c3 bf
       -1.8668634 1.7900938 -2.1519654 -1.5304309
000340 2c 41 a6 bf 01 9e da 3f
       -1.2988639 1.7079469
