weight parameter/internal validation (non-expertML)/maintenance.param(W1)_non-expert.npy (npy, 908 bytes, 1 tensors)

array f4 [13, 15]
-3.4933455 2.4184654 2.9056237 3.8997917 -1.769517 -0.5689319 3.3730292 4.159821
-5.584111 0.088464625 0.8431535 2.778014 -2.8387735 -1.0032065 3.6259074 -0.66984993
2.929015 -1.0953515 2.9222245 4.206025 -5.3317833 -3.602764 -4.2318726 -2.5221007
-3.4384265 -2.8552973 -3.1226854 0.77102476 3.4118485 -4.5491333 0.16241638 -0.89991194
-1.4976523 2.712772 2.6668444 2.7514436 -0.5749741 4.165174 3.929671 0.67435545
3.578907 2.8576126 1.4439013 0.4821976 1.9838072 -2.7178955 -3.5028987 -0.4643531
1.5291888 -5.4738817 -0.06922543 3.2420647 -0.5488421 -5.848263 -5.6867967 -3.104026
-3.897579 -5.0570354 4.7838173 1.3695096 3.0471163 3.67595 1.982016 1.8004749
3.7608125 1.5490668 4.3647127 5.0189314 2.5194767 -1.2556024 0.1707032 3.2054698
2.5903835 -0.63403577 3.6829698 -4.9903574 2.0538058 -5.3499923 -3.242871 2.0888016
-1.3579112 -2.6358871 -1.429825 -0.3671316 -0.3144809 -0.13622227 -1.9731158 2.1167414
-0.48687252 -2.0886595 -1.892254 3.4772263 -2.7662244 -5.854302 1.3655512 -5.141638
-6.116693 -2.967733 -1.2906517 2.7096293 -4.72081 -5.3673935 -0.3684604 -4.378761
-5.391152 1.5170232 3.691884 1.6900021 4.087267 3.20048 -1.2561681 2.6994066
1.7849493 3.0725172 -0.44227925 -0.48427397 -2.887452 3.529206 4.4121737 -4.2546463
0.06989495 1.6432892 -2.1985812 4.136209 -0.6754027 3.6754317 3.727464 0.3867847
3.1897838 -2.0911314 -1.9545752 -1.1395555 5.4569993 2.7851162 3.7217472 2.886922
-2.1789906 2.966128 -2.2265737 1.644165 -0.28266808 -3.6885202 3.227696 -5.526316
-3.9397006 3.2918081 4.1055884 -1.2962954 5.517984 0.10780472 0.74462205 3.0705256
0.7756298 -0.49140242 2.1514928 -0.22549316 5.3805366 -0.55133814 0.19831106 -0.36715305
1.1561927 3.729534 5.3699083 1.9083432 -1.9232898 -0.977678 3.3520687 0.8569123
3.799577 2.4150333 3.159545 0.6738614 -0.92758805 0.076324455 2.479001 1.081689
-0.3536333 -1.7895014 -3.7927616 3.3583512 -2.3383865 -3.9594808 -2.1790788 -0.9861414
-3.836274 -2.6954322 -1.5535657 2.815217 -3.525386 -3.842083 4.4744906 -2.1975684
-4.4473386 -0.4945102 -2.3849192
00000000: f992 5fc0 23c8 1a40 bdf5 3940 3096 7940
00000010: 887f e2bf 85a5 11bf b6df 5740 411d 8540
00000020: 0ab1 b2c0 f12c b53d e8d8 573f fbca 3140
00000030: 77ae 35c0 1269 80bf de0e 6840 497b 2bbf
00000040: fb74 3b40 7a34 8cbf ba05 3b40 c297 8640
00000050: f89d aac0 af93 66c0 806b 87c0 196a 21c0
00000060: 2e0f 5cc0 31bd 36c0 14da 47c0 e161 453f
00000070: ba5b 5a40 8092 91c0 7b50 263e a160 66bf
00000080: 12b3 bfbf 0e9e 2d40 94ad 2a40 a717 3040
00000090: 8131 13bf 1b49 8540 bb7f 7b40 8fa2 2c3f
000000a0: d00c 6540 20e3 3640 c2d1 b83f 9be2 f63e
000000b0: 65ed fd3f 00f2 2dc0 7e2f 60c0 b1bf edbe
000000c0: 75bc c33f 0a2a afc0 10c6 8dbd fd7d 4f40
000000d0: ea80 0cbf f824 bbc0 3dfa b5c0 5da8 46c0
000000e0: ef71 79c0 3cd3 a1c0 0815 9940 174c af3f
000000f0: f403 4340 c442 6b40 b3b2 fd3f f675 e63f
00000100: 27b1 7040 d247 c63f baab 8b40 169b a040
00000110: 1b3f 2140 94b7 a0bf d2cc 2e3e 6b26 4d40
00000120: d8c8 2540 2b50 22bf c7b5 6b40 02b1 9fc0
00000130: 8e71 0340 2333 abc0 338b 4fc0 edae 0540
00000140: 09d0 adbf 60b2 28c0 8104 b7bf acf8 bbbe
00000150: a403 a1be da7d 0bbe 0f8f fcbf b178 0740
00000160: 5b47 f9be 99ac 05c0 6135 f2bf e08a 5e40
00000170: d209 31c0 7156 bbc0 62ca ae3f 4c88 a4c0
00000180: f3bb c3c0 56ef 3dc0 1334 a5bf 916a 2d40
00000190: e010 97c0 b0c1 abc0 d7a6 bcbe cf1e 8cc0
000001a0: 5184 acc0 d12d c23f d447 6c40 fd51 d83f
000001b0: e4ca 8240 aad4 4c40 1eca a0bf 14c3 2c40
000001c0: 3879 e43f 1fa4 4440 6d72 e2be c2f2 f7be
000001d0: 03cc 38c0 83de 6140 8730 8d40 1026 88c0
000001e0: 1525 8f3d 4d57 d23f 8eb5 0cc0 d35b 8440
000001f0: 31e7 2cbf 463a 6b40 c58e 6e40 a508 c63e
00000200: 6b25 4c40 19d5 05c0 852f fabf f4dc 91bf
00000210: bd9f ae40 583f 3240 1b31 6e40 54c3 3840
00000220: 9574 0bc0 0bd5 3d40 2f80 0ec0 0074 d23f
00000230: dfb9 90be b710 6cc0 9292 4e40 95d7 b0c0
00000240: 0e24 7cc0 fcac 5240 fb60 8340 02ed a5bf
00000250: 5393 b040 b9c8 dc3d 8d9f 3e3f 7e83 4440
00000260: ad8f 463f 1999 fbbe 0fb2 0940 aee7 66be
00000270: 5b2d ac40 7f24 0dbf 0e12 4b3e 7cfb bbbe
00000280: 1ffe 933f afb0 6e40 4ad6 ab40 9744 f43f
00000290: 5c2e f6bf 1b49 7abf 4b88 5640 9b5e 5b3f
000002a0: 452c 7340 e88f 1a40 fc35 4a40 2e82 2c3f
000002b0: 6976 6dbf ff4f 9c3d f4a7 1e40 c974 8a3f
000002c0: 6d0f b5be 620e e5bf 9bbc 72c0 3aef 5640
000002d0: 20a8 15c0 2268 7dc0 0776 0bc0 c373 7cbf
000002e0: 8385 75c0 f681 2cc0 3edb c6bf 842c 3440
000002f0: ed9f 61c0 b0e4 75c0 072f 8f40 f6a4 0cc0
00000300: 9950 8ec0 7130 fdbe 84a2 18c0
