weight parameter/internal validation (non-expertML)/maintenance.param(W2)_non-expert).npy (npy, 548 bytes, 1 tensors)

array f4 [15, 7]
-3.2294292 1.307151 -0.7164838 0.6366019 2.8818514 -0.9038554 -1.0075275 2.5448864
1.3148217 -1.2217836 -2.9503694 0.46216682 -1.2373587 -1.5598267 -2.9526043 2.3045518
-0.83376795 2.5399833 1.7153782 -0.50712943 -0.7898144 2.3080592 -3.9898229 -1.0903565
-4.6964803 0.39394572 2.765904 2.41289 2.5303695 -3.4983115 -1.35767 -1.519457
0.18174253 -2.5606108 3.1551492 2.3851378 0.21936949 -0.6162061 -3.074364 -0.07351272
-1.5435209 -1.1830136 2.723535 1.3136882 -0.8659796 4.376813 -2.600347 -1.5079588
-1.3336729 -2.9207203 1.1223127 -0.75170916 2.8855977 1.5449216 1.0036961 -1.4383475
4.0440884 1.4538043 -0.2273384 2.9357667 -3.3005862 -0.7629725 -0.8994518 1.8507951
2.2421532 2.9716635 -3.8798106 -1.7156094 -1.3302402 -1.0612526 -1.5818607 -2.7331223
-0.7374011 3.845213 0.76405436 1.2826564 -1.3976525 -2.2326572 2.783299 -0.64328694
4.332325 0.20923275 -0.5035149 -0.7406114 1.346457 -1.9493257 -1.379494 -3.8393574
2.816946 -2.3241167 -2.11701 -1.7140385 -3.1525133 -1.311509 1.9484305 1.5056409
1.6394917 1.0451183 1.8886188 2.1198425 -0.63551414 -4.0410366 -0.0036866607 -1.3180655
-0.98384434
00000000: f8ae 4ec0 b950 a73f 7b6b 37bf 58f8 223f
00000010: 4170 3840 1163 67bf a9f6 80bf 6bdf 2240
00000020: 144c a83f 6863 9cbf dad2 3cc0 21a1 ec3e
00000030: c561 9ebf 67a8 c7bf 78f7 3cc0 c77d 1340
00000040: d171 55bf 168f 2240 8391 db3f 3cd3 01bf
00000050: 4731 4abf 3eb7 1340 4259 7fc0 cd90 8bbf
00000060: 9149 96c0 41b3 c93e 9204 3140 ca6c 1a40
00000070: 93f1 2140 56e4 5fc0 21c8 adbf 917d c2bf
00000080: b71a 3a3e 0ce1 23c0 f7ed 4940 19a6 1840
00000090: 65a2 603e afbf 1dbf 61c2 44c0 d68d 96bd
000000a0: 1892 c5bf fd6c 97bf 664e 2e40 ef26 a83f
000000b0: d7b0 5dbf da0e 8c40 166c 26c0 cb04 c1bf
000000c0: cbb5 aabf 15ed 3ac0 f1a7 8f3f 0370 40bf
000000d0: a2ad 3840 febf c53f 1d79 803f c51b b8bf
000000e0: 2c69 8140 4216 ba3f 66cb 68be 9ae3 3b40
000000f0: ce3c 53c0 2a52 43bf 7942 66bf dbe6 ec3f
00000100: 707f 0f40 bc2f 3e40 d14e 78c0 1799 dbbf
00000110: 5045 aabf 20d7 87bf 697a cabf 7aeb 2ec0
00000120: 52c6 3cbf f817 7640 1199 433f 162e a43f
00000130: 47e6 b2bf dbe3 0ec0 9221 3240 74ae 24bf
00000140: 68a2 8a40 1c41 563e 5ae6 00bf b598 3dbf
00000150: b458 ac3f 8183 f9bf 4293 b0bf 08b8 75c0
00000160: d848 3440 54be 14c0 187d 07c0 9d65 dbbf
00000170: c7c2 49c0 87df a7bf 2c66 f93f d7b8 c03f
00000180: ddda d13f 70c6 853f 43be f13f 80ab 0740
00000190: 0eb1 22bf 2c50 81c0 e79b 71bb 5fb6 a8bf
000001a0: 39dd 7bbf
