weight parameter/internal validation (expertML)/loading.param(W1).npy (npy, 908 bytes, 1 tensors)

array f4 [13, 15]
00000000: 1a25 0740 413f 6d3f 03b0 5c40 6a58 c4bf
00000010: 315a 57c0 a2e0 1dc0 eb0b b7bf 8714 e73e
00000020: 2f1c 983f dd45 97bf 1009 20c0 9148 94c0
00000030: 53c0 7240 c9f5 8fc0 f442 8140 a570 f6bf
00000040: 910d 2cc0 272c f43f 0707 b5c0 6aa0 96c0
00000050: 7112 a3c0 97d6 79c0 9f24 c5c0 d0b9 9a40
00000060: 8530 03c0 6971 173e 0eaf 65c0 4fc4 a1bf
00000070: 8496 b640 ae65 3c40 e370 663f 98c3 fdbf
00000080: c97c 9040 f355 5840 1cde bdc0 e752 abbd
00000090: ee72 e9be a64f 3a40 bd68 5240 de13 afbf
000000a0: b689 4540 ed5c 2c40 ba8b 6240 507d 3dc0
000000b0: 936e fd3f e7f3 22c0 56f2 89c0 4ea4 9940
000000c0: 8a50 dbbf 449f ac3f 68eb b83e 1b00 99c0
000000d0: abcb 883f d53b a940 7311 1cc0 d4f8 8a40
000000e0: 7291 9840 2d7c 9c40 f515 de3f 342c 3e40
000000f0: 083d 58c0 3121 5540 ee47 483f 26b2 27c0
00000100: adb9 b53e 610b 8040 4184 703e 90ea cdbf
00000110: aa7c 90bf 3347 c13e ae22 e3bf 2af3 993f
00000120: 297d 3240 b097 6e40 d895 b240 fd40 71bf
00000130: 9073 6ec0 23d9 47c0 ab07 5dbe 7dbd 5240
00000140: ed3c de3e c939 5cc0 aa9b cebf 17a3 05c0
00000150: 3299 8ec0 091f a9c0 694c afc0 5be2 283f
00000160: 87f5 e1bf 0383 5140 4b97 6d40 f102 0740
00000170: 0c4a 93c0 c8b4 9940 1e7a d5bf a4d2 7ac0
00000180: 7b2a 453f ac4b 92be 66c9 c5bf 39d8 b840
00000190: 9287 8ac0 d393 6140 45b9 bb40 f9ed 2240
000001a0: 98dd 83be 99c4 5140 cff0 0c40 5694 823f
000001b0: dc67 14bf 1b18 6e40 2237 aa40 b234 073f
000001c0: dc54 45bf a80e b33e 9d1a 0440 6ce1 9e40
000001d0: 1cb9 7d3f 1065 263f 1c64 4540 011b 9740
000001e0: f9e0 aabe e0ff 6140 edec 5340 3f3f 073f
000001f0: 6206 afc0 f782 6bc0 adfe 7a40 3dc1 88c0
00000200: 0c67 e3bd a6f8 b1c0 85c0 c1c0 e318 6d3e
00000210: 2690 51c0 3b8b 17c0 f206 8240 d4b9 8b40
00000220: ed82 4ac0 c93c 3d40 9bdc d0bd c3f3 ef3f
00000230: 0724 6fc0 c380 52c0 3ae9 5040 2eef d93f
00000240: 4916 5140 f91d 6cbf 2dd4 2dc0 4584 9bc0
00000250: a25b 7e40 020e 94c0 c966 9cc0 5f2e a4c0
00000260: a608 c340 b3cd 613e 2b28 2540 f2f4 af40
00000270: 65b2 08c0 5f4b 08bf 5fa9 5bbe aa7a d33f
00000280: 3cf1 08c0 0fd7 9340 2b8f 0440 54e1 a240
00000290: cc12 6bc0 f6d3 e03f 118d cb3f ada0 0bc0
000002a0: 3125 0640 f7bd c33f 18ef 40c0 82ee f03f
000002b0: fe7c 07bf 57ac b1bf b121 bb3f 59c9 aa3f
000002c0: d9cc 4fc0 2945 5a40 98d7 79c0 00db f9bf
000002d0: 9186 aebd 1c9a e5bf be1c c03f 6293 e8bf
000002e0: 16d3 11c0 89f4 3440 25b9 05c0 4bc0 12c0
000002f0: 58e7 d93f 3a1e 8c3e c000 0b40 5b69 f8bf
00000300: 7908 4740 a207 843f f253 853f
2.1116395 0.9267464 3.448243 -1.5339482 -3.3648798 -2.4668355 -1.4300512 0.4513285
1.1883601 -1.1818196 -2.5005531 -4.633858 3.7929885 -4.498753 4.039423 -1.9253126
-2.688328 1.9075974 -5.657108 -4.707082 -5.096001 -3.9037225 -6.1607203 4.835182
-2.0498364 0.14789356 -3.5888095 -1.2638034 5.7058735 2.943706 0.90016 -1.9825315
4.5152326 3.380246 -5.933363 -0.08365422 -0.45595497 2.9111114 3.2876427 -1.3677938
3.0865302 2.6931717 3.5397782 -2.9607735 1.979937 -2.5461366 -4.310832 4.8013067
-1.7133954 1.3486104 0.361171 -4.781263 1.0687155 5.2885537 -2.438565 4.3428745
4.7677546 4.890158 1.7350451 2.971448 -3.378725 3.3301508 0.78234756 -2.6202483
0.35493222 4.001389 0.23487951 -1.6087208 -1.1288044 0.37749633 -1.7744958 1.2027333
2.7888892 3.7280083 5.5807915 -0.9423979 -3.7258034 -3.122628 -0.21584956 3.2928154
0.43405858 -3.441027 -1.6141255 -2.0880792 -4.4562006 -5.2850385 -5.4780774 0.6597039
-1.7653054 3.2736213 3.7123592 2.1095545 -4.602789 4.803318 -1.6677892 -3.9191065
0.77017945 -0.28573358 -1.5452087 5.7763944 -4.329049 3.5246475 5.866366 2.5457747
-0.25755 3.2776244 2.2021978 1.0201519 -0.57970977 3.7202213 5.31923 0.5281478
-0.7708261 0.3497212 2.0641243 4.9650173 0.9911058 0.6499796 3.0842352 4.7220464
-0.33374766 3.5312424 3.3113358 0.5283088 -5.469529 -3.6798685 3.9217942 -4.2735887
-0.11103639 -5.5616026 -6.054751 0.23154025 -3.2744231 -2.367873 4.063348 4.366434
-3.164241 2.956835 -0.10198327 1.8746265 -3.736574 -3.289109 3.264235 1.7026117
3.2669852 -0.92233235 -2.7160752 -4.859896 3.9743428 -4.62671 -4.887547 -5.1306605
6.0948057 0.22051124 2.5805767 5.4986506 -2.1358883 -0.5324001 -0.21451329 1.6521809
-2.1397238 4.6200023 2.0712383 5.090006 -3.6730223 1.7564685 1.5902425 -2.1816819
2.09602 1.5292348 -3.0145931 1.8822787 -0.529251 -1.3880719 1.4619657 1.3342696
-3.246878 3.4104712 -3.9037838 -1.9519958 -0.0852176 -1.7937655 1.5008771 -1.8169978
-2.2785087 2.8274252 -2.0894253 -2.2929866 1.7023726 0.2736681 2.1719208 -1.9407152
3.1098921 1.0314829 1.0416243
