weight parameter/internal validation (expertML)/loading.param(W2).npy (npy, 848 bytes, 1 tensors)

array f4 [15, 12]
0	0x3e06ee2e	0.13176796
1	0x3fd4b6d9	1.6618301
2	0x3f004427	0.5010399
3	0x3fb2b7f8	1.3962393
4	0x3f0a5633	0.5403778
5	0xc00c682b	-2.193858
6	0x4037c6d7	2.8715112
7	0xbfdca202	-1.7236941
8	0x401c7c84	2.4450998
9	0x3f3b56a5	0.73179084
10	0xc08277c2	-4.077119
11	0xbfa311c5	-1.2739798
12	0x3f8bf8ce	1.0935304
13	0xc0558aa2	-3.3365865
14	0x3febad78	1.8412313
15	0x4055664a	3.3343682
16	0xbfb03a67	-1.3767823
17	0x402a1da1	2.6580584
18	0xbf9e7d5c	-1.2382007
19	0x4024e60f	2.5765417
20	0xc007e83b	-2.1235492
21	0xbeaf090d	-0.34186593
22	0xbfaa8326	-1.3321273
23	0xbff4336b	-1.9078192
24	0xbec485f1	-0.3838344
25	0xc013444f	-2.3010442
26	0xc0036686	-2.0531325
27	0xc05c1c84	-3.4392405
28	0x3feb00c8	1.8359613
29	0xbf54a760	-0.83067894
30	0x40723e49	3.7850516
31	0xbfd62579	-1.6730186
32	0x3f21e61e	0.63241756
33	0x4005d435	2.091077
34	0x3fe0da20	1.7566566
35	0x3fe78f8c	1.8090682
36	0xbe05d5c3	-0.13069825
37	0x400041b8	2.0040112
38	0x3f238a63	0.63883036
39	0x400b5462	2.1770253
40	0x40038b60	2.0553818
41	0x4009737a	2.1476731
42	0xbf84abca	-1.0364926
43	0x403818a6	2.8765044
44	0xbf99c9c7	-1.2014703
45	0xc0999f50	-4.8006973
46	0xc064a62d	-3.5726426
47	0xc019b2b1	-2.4015315
48	0x3fafa137	1.3721074
49	0x401684f0	2.3518639
50	0x3fc0b2d1	1.505457
51	0x400f13a8	2.2355747
52	0xbf961cc8	-1.1727533
53	0xc0656f3f	-3.584915
54	0x40ad1b4e	5.409583
55	0x3f86c955	1.0530192
56	0xc00c9903	-2.196839
57	0x3a5ea698	0.00084934523
58	0xc081189d	-4.0342546
59	0xbfee7bb3	-1.86315
60	0x40384a51	2.879536
61	0xbfe71101	-1.8052064
62	0x405d693b	3.4595478
63	0xc08c738b	-4.3891044
64	0x403086ce	2.7582278
65	0x3ffc31d1	1.9702703
66	0xc08a64ff	-4.3248286
67	0xc02f13fb	-2.7355945
68	0x3ff7cd8a	1.93596
69	0x40301177	2.751066
70	0xc02d6f6b	-2.7099254
71	0xbfc37c34	-1.5272279
72	0x3e7b3df1	0.24535348
73	0xbfc5f743	-1.5466083
74	0x3fbd1938	1.4773321
75	0x405a5aa0	3.4117813
76	0xbed5f594	-0.41788924
77	0x400b07cd	2.1723511
78	0xc03ebc45	-2.980241
79	0x4017c7ba	2.3715653
80	0xc040e721	-3.014107
81	0xbf2c365d	-0.6727045
82	0xbfe378a8	-1.7771196
83	0xc00833e5	-2.1281674
84	0x3fbcf2b4	1.4761567
85	0x4041d1b9	3.0284255
86	0x3fd37322	1.6519511
87	0xbff7a58c	-1.9347396
88	0x4087699b	4.2316413
89	0xc06169ed	-3.5220902
90	0xbe1c78a9	-0.15280403
91	0xc038066c	-2.875392
92	0xc07b3e43	-3.9256752
93	0xc041739b	-3.022681
94	0xc00bc997	-2.184179
95	0xbfc6b296	-1.552325
96	0xbfd52264	-1.665112
97	0xc0090817	-2.1411188
98	0xbf83fe19	-1.031192
99	0xbff41488	-1.9068766
100	0xbf347567	-0.7049164
101	0xc0034eb0	-2.0516777
102	0xc0a7911d	-5.236464
103	0x407e8e7e	3.977447
104	0x4059ba3b	3.4019916
105	0x3fb83797	1.4391965
106	0x4001c04f	2.0273626
107	0x3ff9fd83	1.9530491
108	0xbe4c6d15	-0.19963486
109	0x402ca198	2.697363
110	0x3f4f4889	0.80970055
111	0x3f3a64ec	0.72810245
112	0x3f73de8f	0.9526147
113	0x3ffe9864	1.9890256
114	0x3f070888	0.5274739
115	0xc04e4af5	-3.223325
116	0x404eae41	3.2293856
117	0xc00e35ae	-2.2220263
118	0xc065d507	-3.5911272
119	0xc021c009	-2.527346
120	0x4000ef55	2.0146077
121	0xbfe73b50	-1.8064976
122	0xc03fe105	-2.998109
123	0x40397f62	2.8983998
124	0xbfd761c7	-1.6826714
125	0xc04daf08	-3.213808
126	0xbfc366af	-1.5265712
127	0xbfd8c526	-1.6935165
128	0x4065e8bf	3.5923307
129	0xc04210cb	-3.032275
130	0x3f271070	0.65259457
131	0x403926f0	2.8930016
132	0x3fde4a70	1.7366467
133	0xc01176dc	-2.2728796
134	0xc0599bb2	-3.400128
135	0xc081c4da	-4.0552797
136	0x4024113e	2.5635524
137	0x400b4e9d	2.1766732
138	0x407f3300	3.9874878
139	0x3f253a83	0.64542407
140	0xbff303aa	-1.8985493
141	0xbdc9f2bf	-0.09860753
142	0x3f1e32f5	0.61796504
143	0x404538bd	3.081588
144	0xbfc87197	-1.5659665
145	0xbffa93d3	-1.9576362
146	0xbfd60529	-1.6720325
147	0x405cb1c2	3.4483495
148	0x3ec4d680	0.384449
149	0xc00b8273	-2.179837
150	0xc054c0af	-3.3242605
151	0xc049b20a	-3.1514916
152	0x406ff7bb	3.7494953
153	0xc06bd4b1	-3.6848567
154	0x4084259a	4.12959
155	0xc0764a75	-3.8482945
156	0xc073b64f	-3.8080022
157	0xc0357fb3	-2.8359191
158	0xc0195e43	-2.3963783
159	0xc070f1d9	-3.7647612
160	0x3f855795	1.0417353
161	0x403f15aa	2.9856973
162	0x4048410d	3.1289704
163	0x404a4f41	3.1610873
164	0xbf47a04c	-0.7797897
165	0x40372b0e	2.8620028
166	0x3ff45167	1.9087342
167	0x3fdaab58	1.708354
168	0xc0432471	-3.0490992
169	0xc00bb986	-2.1831985
170	0xc03a95c5	-2.9153912
171	0x3fca3b89	1.5799419
172	0x3f41fec8	0.7577939
173	0xc0667b4e	-3.601276
174	0xc0a9dfe2	-5.3085794
175	0x40860974	4.188654
176	0x3f0a3e71	0.5400153
177	0x40229cde	2.5408244
178	0x3ff89de1	1.9423181
179	0x3f09ba50	0.53799915
