weight parameter/internal validation (expertML)/loading.param(W2).npy (npy, 848 bytes, 1 tensors)

array f4 [15, 12]
000000 7f 0a 1e 3f a2 b5 e0 3f 55 ca 93 3f 94 8a 66 40
       0.61734766 1.755543 1.1546122 3.6022081
000010 38 8f 1b be 00 84 c5 3e ea 46 60 40 01 e0 8a c0
       -0.15191352 0.3857727 3.5043283 -4.339844
000020 2b dc 64 3f c8 51 41 3f 3a 96 48 c0 4c 8c 2d c0
       0.8939845 0.75515413 -3.134169 -2.711688
000030 84 d7 90 40 50 1b 81 bf db 49 6b c0 f4 7d 06 c0
       4.526308 -1.008646 -3.6763828 -2.1014376
000040 9d c4 56 3f cd 0c 54 c0 9c 42 3e 40 b5 28 b4 bf
       0.8389376 -3.3132813 2.9728155 -1.4074923
000050 c6 a2 6b 3f bc d8 00 40 5c 06 8d bd 95 a4 19 40
       0.9204525 2.0132284 -0.068859786 2.4006703
000060 76 0b 25 c0 0b ff 1b c0 f2 0e 1e c0 cf c9 1f 40
       -2.5788245 -2.4374416 -2.4696622 2.4966924
000070 ba f6 6b be 04 d4 60 c0 56 01 aa c0 c1 f8 53 40
       -0.23043337 -3.5129404 -5.312663 3.3120577
000080 19 7a 25 40 56 be 1d 40 e5 84 9f 3f 8a a3 10 40
       2.5855772 2.4647422 1.2462431 2.2599816
000090 5a ce c6 bf 88 e1 2b c0 a1 57 46 c0 8d e6 30 40
       -1.5531723 -2.6856403 -3.0990984 2.7640717
0000a0 62 00 de bf 21 16 3a 3f 4b 81 4f 40 0a dd 54 c0
       -1.7343867 0.72690016 3.2422664 -3.3259912
0000b0 24 0b 7a 40 df 81 26 c0 9f 4f 63 40 bc 91 fc bf
       3.90693 -2.6016767 3.5517347 -1.9731975
0000c0 0a 0a e1 be ef 57 ec 3f 66 1b 23 3f 53 6c d2 3e
       -0.43952972 1.8464335 0.6371368 0.4109827
0000d0 1d ed 9e be 07 25 20 40 cf 37 ae 3f 26 e7 3f 40
       -0.31040278 2.50226 1.3610781 2.9984832
0000e0 79 c3 51 40 5c 46 77 c0 01 37 83 c0 05 33 1b c0
       3.2775557 -3.8636694 -4.1004643 -2.424989
0000f0 5b 62 4f 3f 5f 8e 25 40 f2 fc ae 3f 68 4b 15 40
       0.81009454 2.5868146 1.3670943 2.3327274
000100 96 fd f1 3f 6a b3 00 c0 66 39 8c 40 47 46 d6 bf
       1.8905513 -2.0109506 4.3820066 -1.6740197
000110 7e 35 60 c0 71 4a 54 c0 18 e3 2b c0 4c 60 04 c0
       -3.503265 -3.3170435 -2.6857357 -2.0683775
000120 ad cd 09 bf de d0 c5 bf a9 39 de bf fe e3 3f 40
       -0.5382946 -1.5454366 -1.7361346 2.9982905
000130 8b f5 a3 3f d9 3c 6a c0 31 f8 4e c0 91 fe c6 bf
       1.2809309 -3.6599638 -3.2338984 -1.5546438
000140 9b eb 21 40 ed 2b 53 c0 62 ea 68 40 f0 f9 10 c0
       2.5300052 -3.299556 3.6393056 -2.265255
000150 8a ed 72 3f b6 27 2b c0 71 77 b9 3f da 33 82 c0
       0.94893706 -2.6742988 1.4489576 -4.0688295
000160 b5 85 85 3f d0 4d 01 c0 20 07 50 c0 55 d5 59 3d
       1.0431429 -2.0203743 -3.2504349 0.053181965
000170 72 c6 40 40 13 18 95 be b8 86 bb 3f 86 58 2c 40
       3.0121121 -0.2911993 1.4650488 2.692903
000180 b9 fb ef 3f 68 8e 25 40 a4 f8 06 40 88 1a 9d bf
       1.8748695 2.5868168 2.1089258 -1.2273722
000190 f9 41 4e 40 82 b0 eb bf 42 86 15 40 40 4f 6a bf
       3.2227767 -1.8413241 2.3363194 -0.91527176
0001a0 5e 75 64 c0 e2 16 4a c0 77 19 19 c0 33 55 f1 bf
       -3.5696635 -3.1576467 -2.3921793 -1.8854126
0001b0 c3 1d 48 c0 57 ba 0e 40 b2 cd 05 c0 20 75 b7 bf
       -3.1268165 2.2301233 -2.0906796 -1.4332619
0001c0 8d 94 bd 3f 94 b3 88 c0 26 cc 64 c0 4d de 85 40
       1.4810959 -4.271921 -3.5749602 4.1833863
0001d0 a0 5e f9 bf 6b e5 2c 40 a7 d8 48 40 1a 85 21 c0
       -1.9482002 2.7015026 3.1382234 -2.5237489
0001e0 2a 21 8e bd 31 d0 3e c0 be b8 cd 3f 45 3c 61 40
       -0.06939919 -2.981457 1.6072004 3.5193036
0001f0 a6 0a 34 c0 98 ec 43 40 63 e3 f0 3e 6f a9 4f 40
       -2.81315 3.0613155 0.47048482 3.2447164
000200 6d 0d a2 bf 97 78 c0 bf 28 3f 32 c0 41 13 a5 bf
       -1.2660347 -1.5036801 -2.7851048 -1.2896501
000210 1c 66 b0 3f 80 12 1d c0 1f 6a 83 c0 85 ea 5f c0
       1.3781161 -2.4542542 -4.106704 -3.498689
000220 a9 cc 42 40 9b 61 21 40 b9 04 99 3f 67 aa c2 be
       3.0437415 2.5215824 1.1954566 -0.38020632
000230 55 19 04 40 ea 2c c3 be 41 4d a5 3e 7e b0 3c 40
       2.0640461 -0.38120204 0.32285503 2.9482722
000240 17 b1 23 40 c8 31 09 c0 24 a6 27 40 c1 55 e1 3f
       2.5576837 -2.1436634 2.6195154 1.7604295
000250 79 e2 21 40 35 67 25 bf c5 5b b4 c0 90 c7 40 c0
       2.5294478 -0.64610606 -5.6362023 -3.0121803
000260 4b ce a4 bd 6c e7 44 40 64 2a 23 c0 7a f7 d8 bf
       -0.0804716 3.0766249 -2.5494623 -1.6950524
000270 a1 b4 77 c0 84 d3 1b c0 37 d4 08 c0 40 18 6a c0
       -3.8703997 -2.434785 -2.1379526 -3.65773
000280 b8 a2 dc 3f 12 5c 9c 3f d4 9c 01 40 9b 38 89 40
       1.7237158 1.2215598 2.025197 4.28816
000290 1b 54 d4 bf 86 ca 14 40 51 31 00 40 4d 94 14 40
       -1.6588167 2.324861 2.00301 2.3215516
0002a0 2f ed c6 3d e6 a3 c5 3f 52 8c 82 3f b2 c5 28 40
       0.09713208 1.5440643 1.0199072 2.6370664
0002b0 25 22 a6 3f 69 f4 18 40 d0 c7 6a c0 99 bf d3 3e
       1.297917 2.3899176 -3.6684456 0.41357115
0002c0 7b 10 3c c0 f1 88 05 bf df 09 25 c0 6d d8 ff bf
       -2.938506 -0.5216208 -2.5787275 -1.9987923
