weight parameter/internal validation (expertML)/loading.param(W1).npy (npy, 908 bytes, 1 tensors)

array f4 [13, 15]
00000000: da6d 79be 25b0 ed3d 5b85 17c0 15d3 bf40
00000010: f1f9 6d40 fab3 17c0 f0d3 7140 1b31 5440
00000020: ca77 6a3f 5e5c a340 66a6 993f 9e9b 88c0
00000030: ca90 983f 4eaa 86c0 c7d8 57c0 9dbe c5bf
00000040: 3ab0 f5be 9d0a 9140 e478 d43e 7a6c a4c0
00000050: ecef b4c0 a735 44c0 0cf3 6340 e09e b1c0
00000060: 6a47 80c0 109a 34c0 2943 20c0 9bc3 b0c0
00000070: cf29 7840 3855 7bc0 42d3 ae3f c629 7e40
00000080: 3acb 7d40 0f8c 63be 1676 a03f e176 9b3f
00000090: 6984 bc40 7902 7440 b929 2740 d4db aa40
000000a0: 7c5c 16c0 2135 1c40 9a5a 06c0 789a 39bf
000000b0: dff0 18c0 1474 92c0 f9a5 9d40 00ff 6c3e
000000c0: be8c b340 0f51 d13f 08c8 71bf 7428 1940
000000d0: 98c7 183f 0154 a13e 5fb6 813f 6597 9dc0
000000e0: 862a b240 d063 1e3f a9fd 4840 4a82 83c0
000000f0: 811a 9ac0 c650 a53d 1138 89be c2a0 0c40
00000100: d425 c6bf edf5 80bf 09fb 6240 867f 9cc0
00000110: bafe 99bf 846c 8c40 5732 4c40 d5ae 4f3f
00000120: 0d6b 9d40 a6d6 ab40 32f7 06c0 551c 893e
00000130: bee7 4fc0 d528 3140 6321 cb3e b8fd d7bf
00000140: e43b 6d3e d70c f0bf 2f01 b1bf 374b 25bf
00000150: 1757 3f40 4ec7 83c0 446f 9dc0 a5ad edbf
00000160: ac32 36c0 28f0 39c0 783a 4f3f 5a6a cac0
00000170: 99d8 4740 a5f4 cd40 aebe 9c40 906a 4eba
00000180: d179 6c40 0277 8ec0 4bf0 5b3f 7a69 d8be
00000190: 0774 0b40 7a66 6940 3209 853f a4a6 3340
000001a0: db0d 4c40 2644 7e40 4056 3240 009a a240
000001b0: 39bb e4bf 7bc6 a23f 296e de3f 8679 9f3f
000001c0: d292 a540 a076 0abe fa1c 00c0 a645 943f
000001d0: 8f21 083f 9521 84bd 3b1c 0340 de9c 853f
000001e0: 1463 adc0 557f 1a40 360c d7bf 769c b8c0
000001f0: ed81 c8bf dd31 33c0 0d2e 50bf afdd 9ac0
00000200: 164c 80c0 4295 1740 d38f 8940 382a 993f
00000210: 8c98 1a3f 104a b2bf 4be6 6840 5afe 6640
00000220: 2749 9e40 13f2 28c0 f5af 8dc0 ba70 3a40
00000230: 85a4 9f3e 5c42 7ac0 e820 28c0 05d6 0e40
00000240: 6456 5140 fc52 8ac0 40de 4840 39eb 32c0
00000250: 26cc 8340 dfb5 3fc0 4a93 a6c0 35e2 0cc0
00000260: 3b02 fbbf 2184 4e40 8a03 0f40 3e59 8d3f
00000270: 9bff d3bf b9f1 3840 02e1 f93f d7b7 b5c0
00000280: 50bd 9dc0 2d0b 813f d4e1 b040 2ce6 8540
00000290: d24f c9bf 782d ee3f f610 19c0 cc0f 1dbf
000002a0: 9351 6dbe 2131 923f 8ab7 a03f 1868 1e40
000002b0: 0241 a6bf 7a7b 88bf f5cb ee3f 9990 e13f
000002c0: 24e4 3ac0 a02e a63f 5e4b 41c0 eccc 0240
000002d0: e030 34bf 5887 783e 272a 0640 26e2 3a40
000002e0: babb 83bc 460a 14c0 3440 4340 814f f83f
000002f0: 57a9 12c0 8a6a efbe 25bd d5bf 57ee 193f
00000300: bb6b ccbf 4c26 c13f 9b89 04c0
-0.24358311 0.116058625 -2.3675144 5.994517 3.7183802 -2.37036 3.7785606 3.3154972
0.91589034 5.1050253 1.2003906 -4.2689962 1.1919186 -4.208289 -3.372606 -1.5448796
-0.47986013 4.5325456 0.41498482 -5.138242 -5.6542873 -3.0657747 3.5617094 -5.550644
-4.0087175 -2.8219032 -2.5040991 -5.5238776 3.8775518 -3.9270763 1.3658221 3.9712996
3.965529 -0.22221397 1.2536037 1.2145654 5.8911633 3.812651 2.6119215 5.3393345
-2.3493948 2.4407427 -2.0992799 -0.72501326 -2.3897016 -4.5766697 4.9265103 0.2314415
5.6109304 1.6352862 -0.9444585 2.393094 0.59679556 0.31509402 1.013378 -4.924731
5.567691 0.6187105 3.1404822 -4.1096544 -4.8157353 0.08072047 -0.26800588 2.1973119
-1.5480294 -1.007505 3.546572 -4.890567 -1.2030861 4.3882465 3.1905725 0.8112615
4.9193177 5.369952 -2.1088376 0.26779428 -3.2485194 2.7681172 0.3967391 -1.6874304
0.23167378 -1.8753918 -1.3828486 -0.64567894 2.9896905 -4.118079 -4.919832 -1.8568617
-2.8468428 -2.905283 0.8094859 -6.3254824 3.122595 6.436114 4.8982763 -0.00078741554
3.694935 -4.4520273 0.8591353 -0.42267972 2.1789567 3.6468797 1.0393431 2.807046
3.1883457 3.9729095 2.7865143 5.081299 -1.7869636 1.2716821 1.7377368 1.2458961
5.1741724 -0.13521814 -2.0017686 1.1583755 0.53176206 -0.06451718 2.048598 1.0438497
-5.4183445 2.4140217 -1.6800601 -5.769099 -1.566465 -2.7999184 -0.8132027 -4.839561
-4.009288 2.368485 4.2988067 1.1966009 0.6038902 -1.3928852 3.639056 3.6092744
4.9464297 -2.639775 -4.427729 2.9131303 0.31180206 -3.9103003 -2.6270084 2.2318127
3.2708979 -4.32263 3.138565 -2.7956069 4.1186705 -2.9954755 -5.2054796 -2.2013066
-1.9610056 3.2268145 2.234591 1.104286 -1.656238 2.8897536 1.9521792 -5.6786914
-4.9293594 1.0081536 5.527567 4.184347 -1.5727484 1.8607626 -2.3916602 -0.6135223
-0.2317565 1.1421243 1.2556012 2.4751034 -1.2988589 -1.0662682 1.8655993 1.7622253
-2.9201746 1.2982979 -3.020225 2.0437574 -0.7038708 0.2427038 2.0963228 2.920053
-0.016080726 -2.313127 3.0507936 1.9399263 -2.2915857 -0.4676097 -1.6698347 0.601293
-1.5970377 1.5089812 -2.0708988
