weight parameter/internal validation (expertML)/maintenance.param(W1).npy (npy, 908 bytes, 1 tensors)

array f4 [13, 15]
00000000: de3d 16c0 ea4a cf40 c06f 4b40 ae91 5e3f
00000010: 24b6 2ac0 c19f 7140 0157 b03f 9fd4 1840
00000020: 1c66 6040 bce0 8a3f 8cf0 6140 5e8b 5540
00000030: fda5 3b40 6fb5 4ebf 23e3 02c0 9d18 91c0
00000040: 0a40 a1c0 48ff 90c0 53a9 8fc0 f02b 0bc0
00000050: 4d41 6fbe 4ab2 6f3f 9702 d33e 67ad c4c0
00000060: bcb5 58c0 d8c8 3ac0 2ba3 debe b5a0 c240
00000070: df19 da3e c6e0 ac3f c2f5 5340 5d6f 6040
00000080: eff1 aa40 9624 3cc0 8172 6bc0 758d 76c0
00000090: b5e8 34bf e4a1 bb3f 60d5 4840 35cd f03f
000000a0: 9873 643f eadf cabf 42ec a8c0 c594 62c0
000000b0: 4c42 5640 4b3f b2c0 d614 a4c0 fb82 babf
000000c0: a655 62c0 3c8a 84c0 29c5 74c0 82ec 90c0
000000d0: c0e0 8dbc f5c5 673f 0d50 9ec0 9aae 73c0
000000e0: 7069 6fc0 b17a 3a40 a540 863f d97c 5240
000000f0: 4360 54bf 0112 6fbf c0c3 9840 3293 40c0
00000100: d196 8ec0 76ff 15be 6e4d 00c0 9a9a 58bf
00000110: ee66 20be a5b3 1f3e a1b2 fd3f c5b3 8040
00000120: 761a d6be 0cb5 44c0 53e3 95c0 3a94 bebf
00000130: c0db 573f 0e85 193f 9f74 59c0 97ed 9140
00000140: 4c1b 7540 ab97 c0be 0b87 7bbf cd7f b1be
00000150: 46a3 fb3f 081a 31c0 5dda a3c0 73ab dfbf
00000160: b88a d73f 2175 c840 fb72 9cc0 26f8 5dc0
00000170: d4a6 0cbe 6215 9a3f 32a1 ddc0 5fd3 a440
00000180: 9548 a5be 3c3e a1c0 a74c d93f 252f c8bf
00000190: a1aa 8bc0 2f67 5b3f 8a8f 08bf 79cb 89c0
000001a0: fd6b f83e 7fbc a4c0 ab60 86bf b20f 58c0
000001b0: fda4 96c0 556d 0dc0 e5c2 5d40 5a41 8640
000001c0: 6369 e13f 6bff 4140 23be 5dbf b4c4 6540
000001d0: 4970 c83f 0c58 2c3e 3d72 e93f e056 7e3d
000001e0: c39d 9c40 dd0c 2040 3d28 8e40 6b62 3f40
000001f0: 5338 6e40 0253 48c0 2edd 4bc0 b445 6540
00000200: 0663 7ebf 11c0 2740 b2a3 8c3e 5eb1 9540
00000210: 3d6a 7140 051d 8940 5fc9 8740 2d01 c3bf
00000220: 6796 74c0 130e 45c0 6e35 3840 a1d6 5bc0
00000230: 7be7 ca3d a0f8 1340 70a3 b5c0 8d92 0c40
00000240: 03e6 8ec0 d5c8 7740 1499 78c0 4eb5 8bc0
00000250: 3b83 c2c0 2c70 9bc0 9eed 043f 3bbd 88bf
00000260: 1389 8ac0 a3eb 2dbf 9b75 f3bf 11d3 673f
00000270: 935f b93e 1402 ba40 bfc1 53c0 32eb 883e
00000280: 1e69 af3f f7c6 86c0 210a abbd 6a49 ba40
00000290: b5b3 32bf bf52 52c0 a3f1 c23f 4778 d83f
000002a0: 61b8 febf 5cc2 8240 4176 e5bf 5b47 31c0
000002b0: 103b 3b40 a5ae 583e 0f42 1740 8571 a5bf
000002c0: 6ef6 ba3e c063 0640 4914 cc3f 0afb 3040
000002d0: 75bd efbf d58a f9bf 6b97 ebbf c3a6 0dc0
000002e0: bf56 e7bf 846c ed3f 688f 793f 36fd 87bf
000002f0: c595 0340 5e31 f4bf 496f c73f 4b84 b3bf
00000300: 5774 7dbf 189f 8dbf 8261 c53f
-2.347526 6.477895 3.1786957 0.8694104 -2.667367 3.7753756 1.3776551 2.3879774
3.5062323 1.0849833 3.5303068 3.3366313 2.9320061 -0.80745596 -2.0451133 -4.5342546
-5.0390673 -4.5311623 -4.4894195 -2.1745567 -0.23364754 0.9363142 0.41212913 -6.1461673
-3.3860922 -2.9185085 -0.43483862 6.0821176 0.42597863 1.3506095 3.3118749 3.506797
5.342033 -2.939733 -3.6788638 -3.8523839 -0.7066758 1.465878 3.1380234 1.8812624
0.8923888 -1.5849583 -5.27884 -3.5403302 3.3477964 -5.570226 -5.1275434 -1.4571222
-3.5364776 -4.1418743 -3.8245337 -4.5288706 -0.017319083 0.90536433 -4.947272 -3.8075318
-3.7408104 2.9137385 1.0488478 3.28887 -0.82959384 -0.93386847 4.7738953 -3.008984
-4.45591 -0.14648232 -2.004726 -0.84610903 -0.15664265 0.15595873 1.9820138 4.0219445
-0.41817063 -3.0735502 -4.6839995 -1.4888985 0.84319687 0.5996865 -3.397743 4.5602527
3.829791 -0.37615713 -0.98252934 -0.34667817 1.9659202 -2.7672138 -5.1204057 -1.7474197
1.6839209 6.264298 -4.8890357 -3.4682708 -0.13735515 1.2037776 -6.925927 5.150802
-0.32281938 -5.038847 1.6976517 -1.5639387 -4.3645787 0.8570432 -0.53344023 -4.306088
0.4851989 -5.14801 -1.0498251 -3.375958 -4.70764 -2.209798 3.4650204 4.1954775
1.7610286 3.0312145 -0.8661825 3.5901308 1.5659267 0.16830462 1.8237988 0.06209457
4.894258 2.500785 4.442412 2.990382 3.7221878 -3.1300664 -3.1853747 3.5823793
-0.9936985 2.6210978 0.2746864 4.6779013 3.7721093 4.2847924 4.2433314 -1.5234734
-3.8216798 -3.078984 2.878261 -3.434975 0.09907433 2.3120499 -5.676201 2.1964447
-4.4655776 3.8716328 -3.8843431 -4.365882 -6.0785193 -4.857443 0.51925075 -1.0682749
-4.3292327 -0.6793768 -1.9020265 0.90556437 0.3620573 5.8127537 -3.3087003 0.2674194
1.3703954 -4.2117877 -0.08351541 5.8214617 -0.6980546 -3.2863004 1.5229992 1.6911706
-1.9900018 4.0862255 -1.7926713 -2.7699802 2.92548 0.21160372 2.363407 -1.2925268
0.36516136 2.0998383 1.594369 2.7653222 -1.8729693 -1.9495493 -1.8405584 -2.2133033
-1.8073348 1.8548741 0.97484446 -1.0624149 2.0560162 -1.9077566 1.5580837 -1.4024748
-0.99005646 -1.1064177 1.5420382
