weight parameter/internal validation (expertML)/maintenance.param(W2).npy (npy, 548 bytes, 1 tensors)

array f4 [15, 7]
000000 43 11 fb bf 81 1e bc 3f c2 10 e6 bf e2 0c 70 40
       -1.9614643 1.4696809 -1.7973864 3.7507863
000010 da 6b 90 3f 87 30 31 c0 57 30 e4 bf ca da e9 3f
       1.1282914 -2.7685869 -1.7827252 1.8269894
000020 a1 db 60 c0 ab 12 79 40 e1 ae 0b c0 36 37 d3 be
       -3.513405 3.8917644 -2.1825488 -0.4125306
000030 53 30 66 c0 b7 3f 45 40 10 b1 16 40 4c c6 98 3f
       -3.5966995 3.0820138 2.354557 1.1935515
000040 6b e2 13 40 ab 38 1a 3f d1 ed 83 c0 42 ff fe bf
       2.3106945 0.6024272 -4.1227803 -1.9921649
000050 89 54 00 c0 75 9f c6 bf 60 4f b3 3f ed fd 37 40
       -2.0051596 -1.5517412 1.4008598 2.8748734
000060 b3 87 67 40 fa a6 34 bf 81 b7 5c c0 f5 bd cc bf
       3.6176574 -0.70567286 -3.4487002 -1.599547
000070 46 28 3f 40 83 4a 67 c0 e4 dc f2 3f 3f 5f 3a c0
       2.986833 -3.6139228 1.897366 -2.9120634
000080 18 ff 86 40 c7 43 2e c0 7a b9 ee bf 3d 90 1b 40
       4.2186394 -2.7228868 -1.8650353 2.4306786
000090 0d 59 f5 3f 82 e2 8b c0 4a 46 ed bf 0d 67 05 c0
       1.9167801 -4.3714 -1.8537076 -2.0844147
0000a0 ae 77 f4 3f 82 18 77 bf 92 1c 53 40 e4 b9 71 c0
       1.9099023 -0.9652177 3.2986188 -3.7769709
0000b0 c7 1f 02 c0 af 64 8d 3f 5a 9c 0a bf 30 7f f7 3b
       -2.0331895 1.1046351 -0.54144824 0.0075530037
0000c0 03 3d c8 bf b5 0e 54 3f 3a 76 59 40 cd a2 4f 40
       -1.5643619 0.8283494 3.397841 3.2443116
0000d0 4e 81 7d c0 d3 a3 a1 bf ba 8f 1f bf 89 9f 06 bf
       -3.9610171 -1.262812 -0.62328684 -0.5258718
0000e0 af b8 01 40 9c 3b 40 3f 9b dc 6e 40 cf 72 85 c0
       2.0268972 0.75090957 3.7322147 -4.1702647
0000f0 e6 56 a2 3f 84 d0 8f bf 55 b0 37 bf df 03 16 40
       1.2682769 -1.1235509 -0.71753436 2.3439863
000100 47 c9 2b 40 04 1d 63 c0 38 cf 40 c0 ce 89 29 bf
       2.68416 -3.548646 -3.0126476 -0.662259
000110 13 f0 ec be 10 e5 bb be b8 75 57 40 03 64 fa 3f
       -0.46276912 -0.36698198 3.36656 1.9561771
000120 e3 85 96 c0 b1 46 16 c0 33 f9 aa bf ef ec 11 bf
       -4.7038436 -2.3480647 -1.33573 -0.57002157
000130 12 17 11 bf 66 f8 91 3f 21 7d 29 c0 f8 4f 58 c0
       -0.5667583 1.140393 -2.6482623 -3.379881
000140 fb de 76 be 97 66 2f 40 76 c3 21 40 16 a1 aa 3f
       -0.24108498 2.7406366 2.527555 1.333041
000150 83 6f 25 bf 11 6f e0 3f 5b ab 29 c0 37 25 6e 40
       -0.6462328 1.7533895 -2.6510837 3.7210214
000160 66 a3 37 c0 47 c4 85 bf 12 a8 5a bf 55 22 08 c0
       -2.869348 -1.0450524 -0.85412705 -2.1270955
000170 7a bd 44 40 50 ab 91 40 22 6e 11 c0 ea 62 09 c0
       3.0740647 4.552162 -2.272347 -2.1466622
000180 4c 19 37 bf 0b cc 3d bf 17 5d 0b 3f db 2b 6e c0
       -0.71522975 -0.7413947 0.5443892 -3.7214267
000190 81 76 fd 3f e2 ad 46 40 8f 5c c6 bf 1a f6 49 40
       1.980179 3.104363 -1.5496997 3.1556458
0001a0 7b 5a fb 3f
       1.9636987
