weight parameter/internal validation (expertML)/maintenance.param(W2).npy (npy, 548 bytes, 1 tensors)

array f4 [15, 7]
0	0xbfa1e5d4	-1.2648263
1	0x4085acf1	4.177361
2	0x4003f8fc	2.0620718
3	0xc0395da7	-2.896341
4	0xc0054cd3	-2.082814
5	0xbfa934ed	-1.3219277
6	0xbf533c2d	-0.82513696
7	0x3fcde13f	1.6084365
8	0x4000ae37	2.0106332
9	0x40795566	3.8958373
10	0xc07819e1	-3.8765795
11	0xbfdb90c4	-1.7153554
12	0xbf29db24	-0.6635001
13	0xbee61287	-0.4493601
14	0x40452a77	3.0807168
15	0xbf8e625a	-1.1123765
16	0x406b5f7f	3.6777036
17	0xc041ae59	-3.0262663
18	0xc05aacca	-3.4167962
19	0xbfb3b493	-1.4039482
20	0xc006f6cc	-2.1088133
21	0x3fa69a17	1.3015774
22	0x3f472892	0.7779628
23	0x407add8b	3.919772
24	0xc0608252	-3.5079541
25	0xbf172970	-0.59047604
26	0xbfbd1d81	-1.4774629
27	0xbf44266d	-0.76621133
28	0x4065297d	3.5806572
29	0x3eb49a0f	0.35273787
30	0xc07f7767	-3.9916627
31	0xc02e362f	-2.722057
32	0xbf21d6a1	-0.6321812
33	0xbf267d77	-0.65035194
34	0xbf064f2a	-0.52464545
35	0xc000de11	-2.0135539
36	0xbf36ee80	-0.7145767
37	0x3fdffe70	1.7499523
38	0x4042a98b	3.041598
39	0x3fce6547	1.6124657
40	0xbfdeea4c	-1.7415252
41	0xbfba1384	-1.4537206
42	0xc01c0bb5	-2.4382145
43	0x4006c555	2.1057942
44	0x405a40a9	3.4101965
45	0x400c850a	2.19562
46	0xbfdf1e3e	-1.7431104
47	0xbfa46ba8	-1.2845354
48	0xbf6d4556	-0.92683923
49	0x402442fb	2.5665882
50	0xc0220618	-2.531622
51	0xbfc6c865	-1.5529906
52	0xc0036444	-2.0529947
53	0x407dc542	3.9651647
54	0xc009d473	-2.1535919
55	0xbf3f00f7	-0.7461085
56	0x3f87319c	1.0562015
57	0x3f84428d	1.033281
58	0xc0484a07	-3.1295183
59	0x407a5120	3.9112015
60	0xc04e11e1	-3.2198412
61	0xc028c717	-2.6371515
62	0xc0091f96	-2.1425529
63	0x40108f7a	2.258757
64	0x4054bd2f	3.3240469
65	0xc0409dd5	-3.0096333
66	0xc038fc39	-2.8903944
67	0xbfde8381	-1.7383882
68	0xbf26f928	-0.6522393
69	0xbeeb6f1d	-0.4598321
70	0xbfe03977	-1.7517537
71	0x3fa8100b	1.3129896
72	0xbf58bf9e	-0.84667385
73	0x407641e2	3.8477712
74	0xc0100579	-2.250334
75	0xbfab8f6e	-1.3403146
76	0xbf49c189	-0.78810936
77	0x403eed1c	2.983222
78	0x40370367	2.8595827
79	0xc07cdad8	-3.9508572
80	0xbea0ad00	-0.3138199
81	0xc00c94ad	-2.1965744
82	0xc01cb849	-2.4487479
83	0xbf71f416	-0.9451307
84	0x3fec6d04	1.8470769
85	0xc0796c77	-3.8972452
86	0x3ede207e	0.43384165
87	0xbd5c2a78	-0.05375144
88	0x3d0589af	0.03260201
89	0x4091c548	4.555332
90	0xc00fd2eb	-2.2472484
91	0xbf264f37	-0.6496462
92	0xc04f509f	-3.2392957
93	0x408652b5	4.197596
94	0x40030922	2.0474324
95	0x40865218	4.197521
96	0xbf976824	-1.1828656
97	0xbfeb55fe	-1.8385618
98	0x3fe37e54	1.7772927
99	0xc0527d53	-3.2888992
100	0xbffca215	-1.9736964
101	0xbd12b713	-0.035819124
102	0x3f586ed1	0.8454409
103	0x3fe85cd4	1.8153329
104	0x404942ea	3.144709
