weight parameter/internal validation (expertML)/maintenance.param(W1).npy (npy, 908 bytes, 1 tensors)

array f4 [13, 15]
00000000: 35b2 5a40 5923 90c0 6079 7c3f 02a4 29c0
00000010: 3205 8a40 e05f bdbf e90f ea3f 16cd ab40
00000020: 35d4 9abe 9ff2 7940 bd42 10c0 289c c0be
00000030: 6aea 1040 966a 1f40 45ac 4140 e5f5 bebe
00000040: 9201 acbe da92 3ac0 a94c 9cc0 9625 d33e
00000050: d5df 88be be1f 75bf ffef 9fc0 6f51 81c0
00000060: 2e55 9cc0 e23a 71c0 4921 983f eef9 5dc0
00000070: 6f09 bdc0 2835 8840 d270 8dc0 9e96 0740
00000080: c7ea 5e40 6db9 8740 1f31 9b3f 8f6f 9440
00000090: 7fdc 5bc0 9038 7440 127a bfc0 f49c 6740
000000a0: dc70 06c0 5937 833f 287b e4be 89ad 4b40
000000b0: e334 7fc0 1c53 5fc0 7a50 adc0 79a3 84c0
000000c0: 50e2 8ec0 e06e ee3f 7b10 a7c0 ab6f 6140
000000d0: 1250 aac0 8e60 3bc0 f876 b4bf 19c5 a2c0
000000e0: aa45 6b40 5c93 7dc0 c0ad 68c0 bc33 7140
000000f0: bd7d b5be dd53 3ec0 10d7 cb3f d438 f3bf
00000100: 7d15 70bf 4c2b bc3f 3395 e440 3a3d 1bbf
00000110: 8b1c 2fc0 c01f e13e 8026 8fc0 6c36 92bf
00000120: af1f a93f 3895 0d40 5d1b 80c0 7fd8 6840
00000130: bb06 7840 f87c b3be 567a 07c0 480d 16bf
00000140: 7aca 81c0 8ab7 3940 f688 a73f 2a95 6bc0
00000150: c89c 853e eb9d 3f40 56c3 0640 8a62 d5bf
00000160: e59b 4dbe faa5 803f 4448 9940 7470 bdc0
00000170: 0193 3440 f6ef 13c0 e354 f3be cc26 30bf
00000180: 6650 f73e 47b8 c2bf ab48 ed3e c296 66c0
00000190: db15 ddc0 89ab d4bf 8cb8 9bc0 d552 79c0
000001a0: 94aa 08c0 2792 0c40 c5e2 94c0 87d5 76bf
000001b0: 755b 4740 7146 7d3f 1ee4 4ac0 6a21 223f
000001c0: 3b0b 763f aef1 a0c0 b5c4 a9bf d9b7 5bc0
000001d0: 3258 8a3f 3088 3040 7caf 78c0 c98b 6240
000001e0: aa3a 1bc0 dd02 6540 b206 9040 b8d2 4f40
000001f0: e252 9140 e57a 6940 e50e 6c40 4b51 ff3f
00000200: e07e 5a40 62a3 4a40 b066 8440 752b 8140
00000210: fef6 8abf b058 6940 a305 5740 63e9 ac3f
00000220: df58 41bf 5936 eb3e 3091 f73e 7882 d7c0
00000230: 8d95 babf 7891 56c0 6391 9cc0 ac43 2740
00000240: e58e 76c0 df82 45c0 6a44 96c0 4513 9440
00000250: ef9a a2bc 83f9 b5c0 e120 80bf 34cf 8740
00000260: ad07 4dc0 63bb eebf 540b b340 a0ae 9dc0
00000270: c4d5 8bc0 1c2f 16bf 6f15 b7bf cf9f 6ec0
00000280: f67a 12c0 e168 f3be c59c 6d3f 33d3 35bd
00000290: 8519 98be 1822 f4bf 20eb 4240 bd67 57be
000002a0: 74bb 48c0 68bc 6b40 104c 2f40 8fad c63f
000002b0: 93c2 303e 911e 1d3c a3cc 2540 77e7 4140
000002c0: 38ef 3740 b7e3 3bbe 03ac 8ac0 3348 4740
000002d0: 0a64 fb3f 34bb 03c0 882b ba3f 7e1a aa3f
000002e0: dbf6 f0bf 4ae4 e4bf 5877 bd3e f62f d9bf
000002f0: d7ed 1ac0 77e3 d0bf d491 e1bf 8399 bd3f
00000300: 241d bb3f 56e7 efbf 0c31 c03f
3.417127 -4.504315 0.98622704 -2.6506352 4.313134 -1.4794884 1.8286105 5.368785
-0.30240026 3.9054334 -2.2540734 -0.37619138 2.2643075 2.4908805 3.0261395 -0.37296978
-0.33594948 -2.915213 -4.884358 0.41239613 -0.2673327 -0.9575156 -4.9980464 -4.0411906
-4.885398 -3.769219 1.1885158 -3.4683795 -5.9074016 4.256489 -4.420022 2.118568
3.4830797 4.241385 1.2124366 4.638618 -3.435333 3.8159523 -5.983651 3.6189547
-2.1006384 1.0251266 -0.4462521 3.1824667 -3.987603 -3.4894476 -5.416074 -4.144955
-4.465126 1.8627586 -5.220762 3.5224407 -5.322274 -2.9277682 -1.4098806 -5.08656
3.676127 -3.962119 -3.6356049 3.7687826 -0.35447493 -2.9738686 1.5925007 -1.9001718
-0.9378279 1.4700713 7.143213 -0.606403 -2.7361171 0.43969536 -4.4734497 -1.1422858
1.3212794 2.2122326 -4.0033402 3.6382139 3.8754108 -0.3505628 -2.1168418 -0.58614016
-4.0559664 2.9018273 1.3088672 -3.6809793 0.26096177 2.9940135 2.1056724 -1.6670697
-0.20079 1.0050652 4.7900715 -5.919977 2.8214724 -2.311521 -0.475257 -0.688092
0.48303527 -1.5212487 0.46344504 -3.6029515 -6.908918 -1.6614848 -4.8662777 -3.8956807
-2.1354113 2.1964204 -4.652682 -0.96419567 3.114957 0.9893561 -3.1701732 0.63332236
0.96110886 -5.029502 -1.3263155 -3.4330962 1.0808165 2.7583122 -3.8857107 3.5397818
-2.4254556 3.5782998 4.5008173 3.2472363 4.5413675 3.648126 3.688409 1.9946684
3.4139938 3.166222 4.137535 4.036555 -1.0856626 3.646038 3.359719 1.3508724
-0.7552623 0.459399 0.48352957 -6.7346764 -1.4576889 -3.3526287 -4.8927474 2.6135054
-3.8524716 -3.0861127 -4.6958513 4.627352 -0.019849269 -5.686708 -1.0010034 4.2440434
-3.2035935 -1.8650936 5.595133 -4.9275665 -4.3698444 -0.58665633 -1.4303416 -3.728504
-2.288755 -0.47540954 0.92817336 -0.04439087 -0.2970697 -1.9072905 3.045601 -0.21035667
-3.1364412 3.6833744 2.7390175 1.5521716 0.17261724 0.009589807 2.590615 3.0297525
2.8739758 -0.18348585 -4.3334975 3.1137817 1.9639904 -2.058301 1.4544535 1.3289335
-1.8825334 -1.7882168 0.37005115 -1.6967762 -2.4207666 -1.6319417 -1.7622628 1.4812473
1.4618268 -1.8742473 1.5014968
